pytorch/建造第一个神经网路噢/net_params.pkl (torch_old, 906 bytes, 3 tensors)

0.weight f4 [10, 1]
1.1656506 -0.18382494 0.5777603 0.4330032 -1.2120572 -0.7997224 0.82735884 0.04898319
0.68545806 0.2072314
00000000: 0a34 953f 9b3c 3cbe 19e8 133f 98b2 dd3e
00000010: b124 9bbf 9bba 4cbf cacd 533f 99a2 483d
00000020: 2e7a 2f3f 7834 543e

0.bias f4 [10]
0.27193815 0.74365395 0.940057 -0.663581 0.12900963 0.802117 0.8465943 0.6196691
-0.7237189 -0.7201042
00000000: 7a3b 8b3e 1b60 3e3f 93a7 703f 72e0 29bf
00000010: 1a1b 043e 8a57 4d3f 67ba 583f a2a2 1e3f
00000020: a445 39bf c058 38bf

2.weight f4 [1, 10]
0.72817075 0.021644972 0.32684317 -0.19975337 1.0401458 -0.19260174 -0.2195269 -0.0728201
0.18220124 0.29357794
00000000: 6669 3a3f cc50 b13c fd57 a73e 268c 4cbe
00000010: 7f23 853f 6439 45be a9cb 60be b422 95bd
00000020: f692 3a3e d94f 963e
